training-model/chatbot_data.pth (torch, 4346 bytes, 6 tensors)

l1.weight f4 [8, 23]
0	0x3ea8d295	0.3297316
1	0xbe66ae17	-0.22527348
2	0x3f5161da	0.81789935
3	0x3f09d802	0.53845227
4	0x3f85edd7	1.0463208
5	0x3f243585	0.64144164
6	0x3f44a362	0.768118
7	0x3f16e0e7	0.58936924
8	0xbebb9797	-0.3663909
9	0x3e0f3e65	0.13988645
10	0x3e46ba38	0.19406974
11	0x3f201a4d	0.6254013
12	0x3f3cedec	0.7380054
13	0xbe11488a	-0.14187828
14	0x3f42eb08	0.7613988
15	0x3f488cb5	0.783397
16	0x3f519b4c	0.8187759
17	0xbe95d765	-0.29265895
18	0xbf2176a4	-0.63071656
19	0x3f166667	0.58750004
20	0x3f537684	0.82602715
21	0x3ee1b490	0.4408307
22	0x3f4a46e9	0.7901445
23	0x3f173f2a	0.59080756
24	0xbebf1d35	-0.3732697
25	0x3f0b869b	0.54502267
26	0x3ee8cfaf	0.4547095
27	0x3f73692f	0.9508237
28	0x3f018d67	0.5060639
29	0xbea969cb	-0.33088526
30	0x3f27ebd0	0.65594196
31	0xbed34b6b	-0.41268477
32	0xbec167e4	-0.37774575
33	0xbed5c19f	-0.41749284
34	0x3f2c904c	0.6740768
35	0xbeabbf14	-0.3354422
36	0xbeaeb300	-0.3412094
37	0x3f15cf6b	0.5851962
38	0x3f76a35b	0.9634301
39	0xbe9de9c4	-0.30842412
40	0xbe1480b6	-0.14502224
41	0xbeece7ec	-0.46270692
42	0x3f1be5d9	0.60897595
43	0x3f590c4f	0.84784406
44	0x3eb05e08	0.3444674
45	0x3eec193c	0.46113002
46	0x3f8ba641	1.0910112
47	0xbf216b3c	-0.6305425
48	0xbd2d7d50	-0.042355835
49	0x3f8cfe20	1.1015053
50	0xbe9c0d15	-0.3047873
51	0xbd85e5d9	-0.065379806
52	0xbebba5eb	-0.36650023
53	0x3f616a7a	0.88053095
54	0xbf21699b	-0.63051766
55	0xbec73ee6	-0.38915175
56	0xbec3f35b	-0.38271603
57	0x3da0ce02	0.07851793
58	0xbe9b0c02	-0.302826
59	0xbedcf220	-0.43153477
60	0x3f389c9d	0.7211397
61	0xbf4d81df	-0.8027629
62	0xbea7a7db	-0.3274525
63	0xbf049b28	-0.5179925
64	0x3f9dab8c	1.2317977
65	0xbf110dd1	-0.5666171
66	0x3e0a2f0f	0.13494514
67	0x3f04304c	0.51636195
68	0xbd28a844	-0.041176096
69	0x3ed3e9ae	0.4138922
70	0xbe679ac8	-0.22617638
71	0xbe1f0bc9	-0.1553184
72	0xbe9bb166	-0.30408782
73	0xbd146d4c	-0.036237046
74	0xbe44eba7	-0.19230519
75	0x3d4a0cc9	0.0493286
76	0x3f4080d4	0.75196576
77	0xbe9193b7	-0.2843301
78	0xbecc6138	-0.39917922
79	0xbecfa127	-0.40552637
80	0x3cd0703c	0.025444143
81	0xbe47efdb	-0.19525091
82	0xbe9c1b6a	-0.30489665
83	0xbf1d8dae	-0.6154431
84	0x3d838fcf	0.06423914
85	0xbd3459cc	-0.04403095
86	0xbde20297	-0.1103565
87	0x3f868f91	1.0512563
88	0xbdf2ac08	-0.118492186
89	0x3f022e4f	0.5085191
90	0x3f0dc1b8	0.55373716
91	0x3d0ffab1	0.035151187
92	0x3c33b7e0	0.010969132
93	0x3df17266	0.11789398
94	0x3e54806b	0.20752113
95	0xbcd81f38	-0.026382074
96	0x3d5148fc	0.051094994
97	0xbde29079	-0.11062712
98	0xbe437b9d	-0.19090123
99	0x3e264543	0.16237359
100	0x3c36fab0	0.011168167
101	0x3dbbcd4e	0.09170018
102	0xbd916a36	-0.07100336
103	0x3dbc2782	0.09187223
104	0xbd8a962e	-0.06766926
105	0xbe54e249	-0.20789446
106	0xbda45396	-0.08023755
107	0xbdc95aa3	-0.09831741
108	0xbdf6ba71	-0.120472796
109	0x3dbfa0ee	0.09356867
110	0xbdb24b27	-0.087057404
111	0xbdf00cc1	-0.117211826
112	0x3d76cbac	0.06025283
113	0xbe2bfe3e	-0.16796204
114	0x3d115fb4	0.03549166
115	0xbf0ee600	-0.558197
116	0x3f4337de	0.7625712
117	0xbebbf841	-0.3671284
118	0x3e94889c	0.29010475
119	0x3dc63991	0.09678949
120	0xbe6428d1	-0.22281195
121	0x3eadfd2a	0.3398221
122	0xbe8ce274	-0.2751652
123	0x3f63b389	0.88945824
124	0x3eec1318	0.46108317
125	0x3ef5bb7f	0.4799461
126	0xbea52ff5	-0.3226315
127	0x3f15dab7	0.5853686
128	0x3f3f5536	0.74739397
129	0x3f0859ee	0.5326222
130	0xbdce4f31	-0.10073698
131	0x3ebd0910	0.36920977
132	0x3ee5638f	0.4480252
133	0xbed0b395	-0.4076201
134	0x3e23bd29	0.15990128
135	0xbea36136	-0.31910104
136	0x3d2f0e49	0.042738233
137	0xbdf78167	-0.120852284
138	0x3d5378a2	0.051628716
139	0x3f72d09d	0.9484957
140	0xbe76d9a6	-0.24106464
141	0x3f0df611	0.5545359
142	0x3db43451	0.08799041
143	0xbd0737f8	-0.03301236
144	0x3f1bbd06	0.608353
145	0x3d98a10e	0.07452594
146	0x3f18cb6e	0.5968541
147	0xbf227a10	-0.634675
148	0xbf1dff10	-0.6171732
149	0xbed805a2	-0.42191797
150	0x3ecaf4d8	0.39639926
151	0x3eae6990	0.34064913
152	0x3f4d4609	0.8018499
153	0xbf2c100d	-0.6721199
154	0x3ecb3c72	0.39694554
155	0x3e9b4605	0.30326858
156	0x3f96db90	1.1785755
157	0x3e93a238	0.288347
158	0xbf35eb22	-0.7106191
159	0x3f29b4f0	0.66291714
160	0xbe689316	-0.22712359
161	0x3e80d144	0.25159657
162	0xbf0e2afa	-0.5553433
163	0x3f4c22d7	0.7974066
164	0xbf283f85	-0.65721923
165	0xbe1c4860	-0.15261984
166	0x3f5f0d10	0.87129307
167	0x3f2cfaf1	0.67570406
168	0x3ee72f88	0.4515345
169	0xbf53a32b	-0.8267085
170	0x3f861153	1.0474037
171	0x3f8808df	1.0627707
172	0x3f07214f	0.527852
173	0x3ef1b3a3	0.47207364
174	0xbe13c998	-0.1443237
175	0x3e3a59e3	0.18198352
176	0xbe76dbb2	-0.24107245
177	0x3f1dfa06	0.6170963
178	0xbeb3d26e	-0.35121483
179	0xbf50375f	-0.8133449
180	0x3f57f1f8	0.8435359
181	0xbe6fc839	-0.23416223
182	0xbe527efe	-0.20556256
183	0x3f1e768e	0.6189965

l1.bias f4 [8]
0	0x3ee224fe	0.44168848
1	0x3ed617fa	0.41815168
2	0x3f216ae2	0.63053715
3	0x3ecf9b9d	0.4054841
4	0xbe2db28f	-0.16962646
5	0x3f961ecb	1.1728147
6	0x3f227b52	0.6346942
7	0x3f555a33	0.8334076

l2.weight f4 [8, 8]
0	0x3f96bd92	1.1776602
1	0x3fa62a81	1.2981721
2	0x3f6c1347	0.92216915
3	0x3eecbb27	0.46236536
4	0xbe6356d2	-0.22201088
5	0xbf3e088c	-0.7423179
6	0xbdccf8c3	-0.10008385
7	0x3d2c6333	0.04208679
8	0x3e8963b1	0.2683387
9	0xbf0adeaa	-0.5424601
10	0xbf87495b	-1.0569261
11	0xbf3144c6	-0.69245565
12	0x3e6e8272	0.23291948
13	0x3fb62c67	1.42323
14	0x3f0662d3	0.52494544
15	0x3fa197b0	1.2624416
16	0x3f7350c9	0.95045143
17	0x3f7fb4f1	0.9988547
18	0xbf835693	-1.0260795
19	0xbf46865c	-0.77548766
20	0xbdd6c154	-0.10486093
21	0xbe2b5f19	-0.16735496
22	0x3eeff708	0.46868157
23	0x3e948c35	0.2901322
24	0x3f0338aa	0.5125834
25	0x3f611cd9	0.87934643
26	0xbf280871	-0.6563788
27	0xbec56bd1	-0.3855882
28	0xbe425994	-0.18979484
29	0x3f8e8487	1.1134194
30	0x3ebc475c	0.36773193
31	0xbf9b46ff	-1.2131041
32	0x3eb22f43	0.34801683
33	0x3e787a70	0.24265456
34	0x3f01a505	0.50642425
35	0xbf87c2f0	-1.0606365
36	0xbdd351d8	-0.10318345
37	0x3e286721	0.1644559
38	0x3f2c2b5f	0.6725368
39	0xbe9f66da	-0.31133157
40	0xbce0b0c9	-0.027428048
41	0x3ccf72ee	0.025323357
42	0xbe88c352	-0.26711518
43	0xbe8533fa	-0.26016217
44	0x3e6a0d6a	0.2285668
45	0x3d8cf706	0.068830535
46	0xbe85d2fa	-0.26137525
47	0x3d7aa511	0.061192576
48	0xbf249126	-0.6428398
49	0xbd7a3b2b	-0.061091583
50	0x3fcfc38f	1.6231555
51	0x3f3bb6c4	0.73325753
52	0xbd9ba6ec	-0.07600197
53	0x3f27b87f	0.65515894
54	0x3fc9bf4a	1.5761502
55	0xbf5c51fb	-0.8606259
56	0x3f39eb7a	0.72624934
57	0x3f53251b	0.82478493
58	0x3f4fb5c5	0.81136733
59	0xbe979016	-0.29602116
60	0xbeafb40d	-0.34317055
61	0x3ea90ac2	0.3301602
62	0xbf8de825	-1.108647
63	0x3f9fdc09	1.2489024

l2.bias f4 [8]
0	0x3e2eef53	0.17083482
1	0x3f692b07	0.9108128
2	0xbf1cdf5d	-0.61278325
3	0x3e944f3d	0.28966704
4	0xbf3cb204	-0.7370913
5	0xbeadd415	-0.33950868
6	0x3f072ce6	0.52802885
7	0x3f27182e	0.6527127

l3.weight f4 [8, 8]
0	0x3dd10de8	0.102077305
1	0xbebfd6d7	-0.37468597
2	0x3ef3fb44	0.47652638
3	0xbfc2d215	-1.5220362
4	0xbf76849a	-0.96296084
5	0x3dc1efa1	0.09469534
6	0xbfa8bf35	-1.3183352
7	0x3efdf2df	0.49599358
8	0xbe630d03	-0.22172932
9	0xbf66f376	-0.9021524
10	0xbe41d3e2	-0.18928483
11	0x3ecda67e	0.40166086
12	0x3f43e48d	0.76520616
13	0x3e5b81a4	0.21436173
14	0xbe00dcb2	-0.12584189
15	0xbead9e3b	-0.33909783
16	0x3ed38979	0.4131582
17	0xbf98920f	-1.1919574
18	0x3ddc30ab	0.1075147
19	0x3f28a75e	0.6588038
20	0xbfac5642	-1.3463824
21	0x3e9a7468	0.30166936
22	0xbfb4ff92	-1.4140494
23	0xbbfd4238	-0.007728841
24	0xbedb7bb8	-0.42867827
25	0x3e608a7e	0.2192783
26	0x3f266547	0.64998287
27	0xbeb0c3d4	-0.34524405
28	0x3f017e5c	0.50583434
29	0x3c88737e	0.016656633
30	0xbf7d6e1e	-0.9899615
31	0xbf055a83	-0.52091235
32	0xbf9f33c2	-1.243767
33	0x3f3f671f	0.74766725
34	0xbf985d99	-1.1903564
35	0x3f82c5bb	1.0216593
36	0xbef2c9b7	-0.4741952
37	0xbe51c090	-0.20483613
38	0x3e7d3668	0.24727786
39	0xbf996871	-1.1984998
40	0xbfb91e64	-1.44624
41	0x3f75d1f0	0.96023464
42	0xbf8a01d0	-1.0781803
43	0xbfa4599d	-1.2839848
44	0xbf473997	-0.7782225
45	0x3d0cc163	0.034364115
46	0xbfac4cae	-1.3460901
47	0x3f6e9b53	0.93205756
48	0x3f0c7417	0.5486464
49	0xbfac0a0f	-1.344057
50	0xbe9d77c4	-0.30755436
51	0xbfcdda88	-1.6082315
52	0xbf416343	-0.75542086
53	0x3e8fc4be	0.2807979
54	0xbe3d1bfb	-0.18467705
55	0x3e688bad	0.22709532
56	0xbec7f9e3	-0.39057836
57	0xbf7fa176	-0.99855745
58	0xbf30eba5	-0.69109565
59	0xbfcd63a3	-1.6046032
60	0xbf51c825	-0.8194602
61	0x3e5d58a2	0.21615842
62	0x3f9998fe	1.1999815
63	0xbf85ac39	-1.0443183

l3.bias f4 [8]
0	0xbf0ae3f4	-0.5425408
1	0xbe2beff1	-0.16790749
2	0xbdd18d9b	-0.10232087
3	0xbec430f2	-0.38318592
4	0x3e686ddc	0.22698158
5	0x3ebf56cb	0.37370905
6	0x3ceb81e6	0.028748464
7	0x3f26dd75	0.65181667
